…
                 from  n    params  module                                  arguments

                 from  n    params  module                                  arguments

                 from  n    params  module                                  arguments

                 from  n    params  module                                  arguments

                 from  n    params  module                                  arguments

                 from  n    params  module                                  arguments

                 from  n    params  module                                  arguments
  0                -1  1      3520  models.common.Conv                      [3, 32, 6, 2, 2]
  0                -1  1      3520  models.common.Conv                      [3, 32, 6, 2, 2]
  1                -1  1     18560  models.common.Conv                      [32, 64, 3, 2]
  1                -1  1     18560  models.common.Conv                      [32, 64, 3, 2]
  0                -1  1      3520  models.common.Conv                      [3, 32, 6, 2, 2]
  0                -1  1      3520  models.common.Conv                      [3, 32, 6, 2, 2]
  2                -1  1     18816  models.common.C3                        [64, 64, 1]
  2                -1  1     18816  models.common.C3                        [64, 64, 1]
  1                -1  1     18560  models.common.Conv                      [32, 64, 3, 2]
  1                -1  1     18560  models.common.Conv                      [32, 64, 3, 2]
  3                -1  1     73984  models.common.Conv                      [64, 128, 3, 2]
  3                -1  1     73984  models.common.Conv                      [64, 128, 3, 2]
  2                -1  1     18816  models.common.C3                        [64, 64, 1]
  2                -1  1     18816  models.common.C3                        [64, 64, 1]
  3                -1  1     73984  models.common.Conv                      [64, 128, 3, 2]
  3                -1  1     73984  models.common.Conv                      [64, 128, 3, 2]
  4                -1  2    115712  models.common.C3                        [128, 128, 2]
  4                -1  2    115712  models.common.C3                        [128, 128, 2]
  0                -1  1      3520  models.common.Conv                      [3, 32, 6, 2, 2]
  0                -1  1      3520  models.common.Conv                      [3, 32, 6, 2, 2]
  1                -1  1     18560  models.common.Conv                      [32, 64, 3, 2]
  1                -1  1     18560  models.common.Conv                      [32, 64, 3, 2]
  4                -1  2    115712  models.common.C3                        [128, 128, 2]
  4                -1  2    115712  models.common.C3                        [128, 128, 2]
  5                -1  1    295424  models.common.Conv                      [128, 256, 3, 2]
  5                -1  1    295424  models.common.Conv                      [128, 256, 3, 2]
  2                -1  1     18816  models.common.C3                        [64, 64, 1]
  2                -1  1     18816  models.common.C3                        [64, 64, 1]
  3                -1  1     73984  models.common.Conv                      [64, 128, 3, 2]
  3                -1  1     73984  models.common.Conv                      [64, 128, 3, 2]
  4                -1  2    115712  models.common.C3                        [128, 128, 2]
  4                -1  2    115712  models.common.C3                        [128, 128, 2]
  6                -1  3    625152  models.common.C3                        [256, 256, 3]
  6                -1  3    625152  models.common.C3                        [256, 256, 3]
  5                -1  1    295424  models.common.Conv                      [128, 256, 3, 2]
  5                -1  1    295424  models.common.Conv                      [128, 256, 3, 2]
  5                -1  1    295424  models.common.Conv                      [128, 256, 3, 2]
  5                -1  1    295424  models.common.Conv                      [128, 256, 3, 2]
  7                -1  1   1180672  models.common.Conv                      [256, 512, 3, 2]
  7                -1  1   1180672  models.common.Conv                      [256, 512, 3, 2]
  6                -1  3    625152  models.common.C3                        [256, 256, 3]
  6                -1  3    625152  models.common.C3                        [256, 256, 3]
  8                -1  1   1182720  models.common.C3                        [512, 512, 1]
  8                -1  1   1182720  models.common.C3                        [512, 512, 1]
  6                -1  3    625152  models.common.C3                        [256, 256, 3]
  6                -1  3    625152  models.common.C3                        [256, 256, 3]
  7                -1  1   1180672  models.common.Conv                      [256, 512, 3, 2]
  7                -1  1   1180672  models.common.Conv                      [256, 512, 3, 2]
  9                -1  1    656896  models.common.SPPF                      [512, 512, 5]
  9                -1  1    656896  models.common.SPPF                      [512, 512, 5]
 10                -1  1    131584  models.common.Conv                      [512, 256, 1, 1]
 10                -1  1    131584  models.common.Conv                      [512, 256, 1, 1]
 11                -1  1         0  torch.nn.modules.upsampling.Upsample    [None, 2, 'nearest']
 11                -1  1         0  torch.nn.modules.upsampling.Upsample    [None, 2, 'nearest']
 12           [-1, 6]  1         0  models.common.Concat                    [1]
 12           [-1, 6]  1         0  models.common.Concat                    [1]
  7                -1  1   1180672  models.common.Conv                      [256, 512, 3, 2]
  7                -1  1   1180672  models.common.Conv                      [256, 512, 3, 2]
  8                -1  1   1182720  models.common.C3                        [512, 512, 1]
  8                -1  1   1182720  models.common.C3                        [512, 512, 1]
 13                -1  1    361984  models.common.C3                        [512, 256, 1, False]
 13                -1  1    361984  models.common.C3                        [512, 256, 1, False]
 14                -1  1     33024  models.common.Conv                      [256, 128, 1, 1]
 14                -1  1     33024  models.common.Conv                      [256, 128, 1, 1]
 15                -1  1         0  torch.nn.modules.upsampling.Upsample    [None, 2, 'nearest']
 15                -1  1         0  torch.nn.modules.upsampling.Upsample    [None, 2, 'nearest']
 16           [-1, 4]  1         0  models.common.Concat                    [1]
 16           [-1, 4]  1         0  models.common.Concat                    [1]
  9                -1  1    656896  models.common.SPPF                      [512, 512, 5]
  9                -1  1    656896  models.common.SPPF                      [512, 512, 5]
 17                -1  1     90880  models.common.C3                        [256, 128, 1, False]
 17                -1  1     90880  models.common.C3                        [256, 128, 1, False]
 10                -1  1    131584  models.common.Conv                      [512, 256, 1, 1]
 10                -1  1    131584  models.common.Conv                      [512, 256, 1, 1]
 11                -1  1         0  torch.nn.modules.upsampling.Upsample    [None, 2, 'nearest']
 11                -1  1         0  torch.nn.modules.upsampling.Upsample    [None, 2, 'nearest']
 12           [-1, 6]  1         0  models.common.Concat                    [1]
 12           [-1, 6]  1         0  models.common.Concat                    [1]
  8                -1  1   1182720  models.common.C3                        [512, 512, 1]
  8                -1  1   1182720  models.common.C3                        [512, 512, 1]
 18                -1  1    147712  models.common.Conv                      [128, 128, 3, 2]
 18                -1  1    147712  models.common.Conv                      [128, 128, 3, 2]
 19          [-1, 14]  1         0  models.common.Concat                    [1]
 19          [-1, 14]  1         0  models.common.Concat                    [1]
 13                -1  1    361984  models.common.C3                        [512, 256, 1, False]
 13                -1  1    361984  models.common.C3                        [512, 256, 1, False]
 14                -1  1     33024  models.common.Conv                      [256, 128, 1, 1]
 20                -1  1    296448  models.common.C3                        [256, 256, 1, False]
 14                -1  1     33024  models.common.Conv                      [256, 128, 1, 1]
 20                -1  1    296448  models.common.C3                        [256, 256, 1, False]
 15                -1  1         0  torch.nn.modules.upsampling.Upsample    [None, 2, 'nearest']
 15                -1  1         0  torch.nn.modules.upsampling.Upsample    [None, 2, 'nearest']
 16           [-1, 4]  1         0  models.common.Concat                    [1]
 16           [-1, 4]  1         0  models.common.Concat                    [1]
  9                -1  1    656896  models.common.SPPF                      [512, 512, 5]
  9                -1  1    656896  models.common.SPPF                      [512, 512, 5]
 10                -1  1    131584  models.common.Conv                      [512, 256, 1, 1]
 10                -1  1    131584  models.common.Conv                      [512, 256, 1, 1]
 11                -1  1         0  torch.nn.modules.upsampling.Upsample    [None, 2, 'nearest']
 11                -1  1         0  torch.nn.modules.upsampling.Upsample    [None, 2, 'nearest']
 12           [-1, 6]  1         0  models.common.Concat                    [1]
 12           [-1, 6]  1         0  models.common.Concat                    [1]
 17                -1  1     90880  models.common.C3                        [256, 128, 1, False]
 17                -1  1     90880  models.common.C3                        [256, 128, 1, False]
 21                -1  1    590336  models.common.Conv                      [256, 256, 3, 2]
 21                -1  1    590336  models.common.Conv                      [256, 256, 3, 2]
 22          [-1, 10]  1         0  models.common.Concat                    [1]
 22          [-1, 10]  1         0  models.common.Concat                    [1]
 18                -1  1    147712  models.common.Conv                      [128, 128, 3, 2]
 18                -1  1    147712  models.common.Conv                      [128, 128, 3, 2]
 19          [-1, 14]  1         0  models.common.Concat                    [1]
 19          [-1, 14]  1         0  models.common.Concat                    [1]
 13                -1  1    361984  models.common.C3                        [512, 256, 1, False]
 13                -1  1    361984  models.common.C3                        [512, 256, 1, False]
 20                -1  1    296448  models.common.C3                        [256, 256, 1, False]
 20                -1  1    296448  models.common.C3                        [256, 256, 1, False]
 14                -1  1     33024  models.common.Conv                      [256, 128, 1, 1]
 14                -1  1     33024  models.common.Conv                      [256, 128, 1, 1]
 15                -1  1         0  torch.nn.modules.upsampling.Upsample    [None, 2, 'nearest']
 15                -1  1         0  torch.nn.modules.upsampling.Upsample    [None, 2, 'nearest']
 16           [-1, 4]  1         0  models.common.Concat                    [1]
 16           [-1, 4]  1         0  models.common.Concat                    [1]
 17                -1  1     90880  models.common.C3                        [256, 128, 1, False]
 17                -1  1     90880  models.common.C3                        [256, 128, 1, False]
 21                -1  1    590336  models.common.Conv                      [256, 256, 3, 2]
 21                -1  1    590336  models.common.Conv                      [256, 256, 3, 2]
 22          [-1, 10]  1         0  models.common.Concat                    [1]
 22          [-1, 10]  1         0  models.common.Concat                    [1]
 23                -1  1   1182720  models.common.C3                        [512, 512, 1, False]
 23                -1  1   1182720  models.common.C3                        [512, 512, 1, False]
 18                -1  1    147712  models.common.Conv                      [128, 128, 3, 2]
 18                -1  1    147712  models.common.Conv                      [128, 128, 3, 2]
 19          [-1, 14]  1         0  models.common.Concat                    [1]
 19          [-1, 14]  1         0  models.common.Concat                    [1]
 20                -1  1    296448  models.common.C3                        [256, 256, 1, False]
 20                -1  1    296448  models.common.C3                        [256, 256, 1, False]
 23                -1  1   1182720  models.common.C3                        [512, 512, 1, False]
 23                -1  1   1182720  models.common.C3                        [512, 512, 1, False]
 21                -1  1    590336  models.common.Conv                      [256, 256, 3, 2]
 21                -1  1    590336  models.common.Conv                      [256, 256, 3, 2]
 22          [-1, 10]  1         0  models.common.Concat                    [1]
  0                -1  1      3520  models.common.Conv                      [3, 32, 6, 2, 2]
 22          [-1, 10]  1         0  models.common.Concat                    [1]
  0                -1  1      3520  models.common.Conv                      [3, 32, 6, 2, 2]
 24      [17, 20, 23]  1    229245  model.yolov5.models.yolo.Detect         [80, [[10, 13, 16, 30, 33, 23], [30, 61, 62, 45, 59, 119], [116, 90, 156, 198, 373, 326]], [128, 256, 512]]
 24      [17, 20, 23]  1    229245  model.yolov5.models.yolo.Detect         [80, [[10, 13, 16, 30, 33, 23], [30, 61, 62, 45, 59, 119], [116, 90, 156, 198, 373, 326]], [128, 256, 512]]
 24      [17, 20, 23]  1    229245  model.yolov5.models.yolo.Detect         [80, [[10, 13, 16, 30, 33, 23], [30, 61, 62, 45, 59, 119], [116, 90, 156, 198, 373, 326]], [128, 256, 512]]
 24      [17, 20, 23]  1    229245  model.yolov5.models.yolo.Detect         [80, [[10, 13, 16, 30, 33, 23], [30, 61, 62, 45, 59, 119], [116, 90, 156, 198, 373, 326]], [128, 256, 512]]
  1                -1  1     18560  models.common.Conv                      [32, 64, 3, 2]
  1                -1  1     18560  models.common.Conv                      [32, 64, 3, 2]
  2                -1  1     18816  models.common.C3                        [64, 64, 1]
  2                -1  1     18816  models.common.C3                        [64, 64, 1]
  3                -1  1     73984  models.common.Conv                      [64, 128, 3, 2]
  3                -1  1     73984  models.common.Conv                      [64, 128, 3, 2]
  4                -1  2    115712  models.common.C3                        [128, 128, 2]
  4                -1  2    115712  models.common.C3                        [128, 128, 2]
 23                -1  1   1182720  models.common.C3                        [512, 512, 1, False]
 23                -1  1   1182720  models.common.C3                        [512, 512, 1, False]
  5                -1  1    295424  models.common.Conv                      [128, 256, 3, 2]
  5                -1  1    295424  models.common.Conv                      [128, 256, 3, 2]
 24      [17, 20, 23]  1    229245  model.yolov5.models.yolo.Detect         [80, [[10, 13, 16, 30, 33, 23], [30, 61, 62, 45, 59, 119], [116, 90, 156, 198, 373, 326]], [128, 256, 512]]
 24      [17, 20, 23]  1    229245  model.yolov5.models.yolo.Detect         [80, [[10, 13, 16, 30, 33, 23], [30, 61, 62, 45, 59, 119], [116, 90, 156, 198, 373, 326]], [128, 256, 512]]
  6                -1  3    625152  models.common.C3                        [256, 256, 3]
  6                -1  3    625152  models.common.C3                        [256, 256, 3]
  7                -1  1   1180672  models.common.Conv                      [256, 512, 3, 2]
  7                -1  1   1180672  models.common.Conv                      [256, 512, 3, 2]
  8                -1  1   1182720  models.common.C3                        [512, 512, 1]
  8                -1  1   1182720  models.common.C3                        [512, 512, 1]
  9                -1  1    656896  models.common.SPPF                      [512, 512, 5]
  9                -1  1    656896  models.common.SPPF                      [512, 512, 5]
 10                -1  1    131584  models.common.Conv                      [512, 256, 1, 1]
 10                -1  1    131584  models.common.Conv                      [512, 256, 1, 1]
 11                -1  1         0  torch.nn.modules.upsampling.Upsample    [None, 2, 'nearest']
 11                -1  1         0  torch.nn.modules.upsampling.Upsample    [None, 2, 'nearest']
 12           [-1, 6]  1         0  models.common.Concat                    [1]
 12           [-1, 6]  1         0  models.common.Concat                    [1]
 13                -1  1    361984  models.common.C3                        [512, 256, 1, False]
 13                -1  1    361984  models.common.C3                        [512, 256, 1, False]
 14                -1  1     33024  models.common.Conv                      [256, 128, 1, 1]
 14                -1  1     33024  models.common.Conv                      [256, 128, 1, 1]
 15                -1  1         0  torch.nn.modules.upsampling.Upsample    [None, 2, 'nearest']
 15                -1  1         0  torch.nn.modules.upsampling.Upsample    [None, 2, 'nearest']
 16           [-1, 4]  1         0  models.common.Concat                    [1]
 16           [-1, 4]  1         0  models.common.Concat                    [1]
 17                -1  1     90880  models.common.C3                        [256, 128, 1, False]
 17                -1  1     90880  models.common.C3                        [256, 128, 1, False]
 18                -1  1    147712  models.common.Conv                      [128, 128, 3, 2]
 18                -1  1    147712  models.common.Conv                      [128, 128, 3, 2]
 19          [-1, 14]  1         0  models.common.Concat                    [1]
 19          [-1, 14]  1         0  models.common.Concat                    [1]
 20                -1  1    296448  models.common.C3                        [256, 256, 1, False]
 20                -1  1    296448  models.common.C3                        [256, 256, 1, False]
 21                -1  1    590336  models.common.Conv                      [256, 256, 3, 2]
 21                -1  1    590336  models.common.Conv                      [256, 256, 3, 2]
 22          [-1, 10]  1         0  models.common.Concat                    [1]
 22          [-1, 10]  1         0  models.common.Concat                    [1]
 23                -1  1   1182720  models.common.C3                        [512, 512, 1, False]
 23                -1  1   1182720  models.common.C3                        [512, 512, 1, False]
 24      [17, 20, 23]  1    229245  model.yolov5.models.yolo.Detect         [80, [[10, 13, 16, 30, 33, 23], [30, 61, 62, 45, 59, 119], [116, 90, 156, 198, 373, 326]], [128, 256, 512]]
 24      [17, 20, 23]  1    229245  model.yolov5.models.yolo.Detect         [80, [[10, 13, 16, 30, 33, 23], [30, 61, 62, 45, 59, 119], [116, 90, 156, 198, 373, 326]], [128, 256, 512]]
YOLOv5s summary: 270 layers, 7235389 parameters, 7235389 gradients, 16.6 GFLOPs
…
add file handler
add file handler
add file handler

                 from  n    params  module                                  arguments

                 from  n    params  module                                  arguments

                 from  n    params  module                                  arguments

                 from  n    params  module                                  arguments

                 from  n    params  module                                  arguments

                 from  n    params  module                                  arguments
  0                -1  1      3520  models.common.Conv                      [3, 32, 6, 2, 2]
  0                -1  1      3520  models.common.Conv                      [3, 32, 6, 2, 2]
  0                -1  1      3520  models.common.Conv                      [3, 32, 6, 2, 2]
  0                -1  1      3520  models.common.Conv                      [3, 32, 6, 2, 2]

                 from  n    params  module                                  arguments

                 from  n    params  module                                  arguments
  0                -1  1      3520  models.common.Conv                      [3, 32, 6, 2, 2]
  0                -1  1      3520  models.common.Conv                      [3, 32, 6, 2, 2]
  1                -1  1     18560  models.common.Conv                      [32, 64, 3, 2]
  1                -1  1     18560  models.common.Conv                      [32, 64, 3, 2]
  1                -1  1     18560  models.common.Conv                      [32, 64, 3, 2]
  1                -1  1     18560  models.common.Conv                      [32, 64, 3, 2]
  1                -1  1     18560  models.common.Conv                      [32, 64, 3, 2]
  1                -1  1     18560  models.common.Conv                      [32, 64, 3, 2]
  0                -1  1      3520  models.common.Conv                      [3, 32, 6, 2, 2]
  0                -1  1      3520  models.common.Conv                      [3, 32, 6, 2, 2]
  1                -1  1     18560  models.common.Conv                      [32, 64, 3, 2]
  1                -1  1     18560  models.common.Conv                      [32, 64, 3, 2]
  2                -1  1     18816  models.common.C3                        [64, 64, 1]
  2                -1  1     18816  models.common.C3                        [64, 64, 1]
  2                -1  1     18816  models.common.C3                        [64, 64, 1]
  2                -1  1     18816  models.common.C3                        [64, 64, 1]
  2                -1  1     18816  models.common.C3                        [64, 64, 1]
  2                -1  1     18816  models.common.C3                        [64, 64, 1]
  3                -1  1     73984  models.common.Conv                      [64, 128, 3, 2]
  3                -1  1     73984  models.common.Conv                      [64, 128, 3, 2]
  3                -1  1     73984  models.common.Conv                      [64, 128, 3, 2]
  3                -1  1     73984  models.common.Conv                      [64, 128, 3, 2]
  3                -1  1     73984  models.common.Conv                      [64, 128, 3, 2]
  3                -1  1     73984  models.common.Conv                      [64, 128, 3, 2]
  2                -1  1     18816  models.common.C3                        [64, 64, 1]
  2                -1  1     18816  models.common.C3                        [64, 64, 1]
  3                -1  1     73984  models.common.Conv                      [64, 128, 3, 2]
  3                -1  1     73984  models.common.Conv                      [64, 128, 3, 2]
  4                -1  2    115712  models.common.C3                        [128, 128, 2]
  4                -1  2    115712  models.common.C3                        [128, 128, 2]
  4                -1  2    115712  models.common.C3                        [128, 128, 2]
  4                -1  2    115712  models.common.C3                        [128, 128, 2]
  4                -1  2    115712  models.common.C3                        [128, 128, 2]
  4                -1  2    115712  models.common.C3                        [128, 128, 2]
  4                -1  2    115712  models.common.C3                        [128, 128, 2]
  4                -1  2    115712  models.common.C3                        [128, 128, 2]
  5                -1  1    295424  models.common.Conv                      [128, 256, 3, 2]
  5                -1  1    295424  models.common.Conv                      [128, 256, 3, 2]
  5                -1  1    295424  models.common.Conv                      [128, 256, 3, 2]
  5                -1  1    295424  models.common.Conv                      [128, 256, 3, 2]
  5                -1  1    295424  models.common.Conv                      [128, 256, 3, 2]
  5                -1  1    295424  models.common.Conv                      [128, 256, 3, 2]
  5                -1  1    295424  models.common.Conv                      [128, 256, 3, 2]
  5                -1  1    295424  models.common.Conv                      [128, 256, 3, 2]
  6                -1  3    625152  models.common.C3                        [256, 256, 3]
  6                -1  3    625152  models.common.C3                        [256, 256, 3]
  6                -1  3    625152  models.common.C3                        [256, 256, 3]
  6                -1  3    625152  models.common.C3                        [256, 256, 3]
  6                -1  3    625152  models.common.C3                        [256, 256, 3]
  6                -1  3    625152  models.common.C3                        [256, 256, 3]
  6                -1  3    625152  models.common.C3                        [256, 256, 3]
  6                -1  3    625152  models.common.C3                        [256, 256, 3]
  7                -1  1   1180672  models.common.Conv                      [256, 512, 3, 2]
  7                -1  1   1180672  models.common.Conv                      [256, 512, 3, 2]
  7                -1  1   1180672  models.common.Conv                      [256, 512, 3, 2]
  7                -1  1   1180672  models.common.Conv                      [256, 512, 3, 2]
  7                -1  1   1180672  models.common.Conv                      [256, 512, 3, 2]
  7                -1  1   1180672  models.common.Conv                      [256, 512, 3, 2]
  7                -1  1   1180672  models.common.Conv                      [256, 512, 3, 2]
  7                -1  1   1180672  models.common.Conv                      [256, 512, 3, 2]
  8                -1  1   1182720  models.common.C3                        [512, 512, 1]
  8                -1  1   1182720  models.common.C3                        [512, 512, 1]
  8                -1  1   1182720  models.common.C3                        [512, 512, 1]
  8                -1  1   1182720  models.common.C3                        [512, 512, 1]
  8                -1  1   1182720  models.common.C3                        [512, 512, 1]
  8                -1  1   1182720  models.common.C3                        [512, 512, 1]
  8                -1  1   1182720  models.common.C3                        [512, 512, 1]
  8                -1  1   1182720  models.common.C3                        [512, 512, 1]
  9                -1  1    656896  models.common.SPPF                      [512, 512, 5]
  9                -1  1    656896  models.common.SPPF                      [512, 512, 5]
  9                -1  1    656896  models.common.SPPF                      [512, 512, 5]
  9                -1  1    656896  models.common.SPPF                      [512, 512, 5]
  9                -1  1    656896  models.common.SPPF                      [512, 512, 5]
  9                -1  1    656896  models.common.SPPF                      [512, 512, 5]
 10                -1  1    131584  models.common.Conv                      [512, 256, 1, 1]
  9                -1  1    656896  models.common.SPPF                      [512, 512, 5]
 10                -1  1    131584  models.common.Conv                      [512, 256, 1, 1]
 10                -1  1    131584  models.common.Conv                      [512, 256, 1, 1]
  9                -1  1    656896  models.common.SPPF                      [512, 512, 5]
 10                -1  1    131584  models.common.Conv                      [512, 256, 1, 1]
 11                -1  1         0  torch.nn.modules.upsampling.Upsample    [None, 2, 'nearest']
 11                -1  1         0  torch.nn.modules.upsampling.Upsample    [None, 2, 'nearest']
 11                -1  1         0  torch.nn.modules.upsampling.Upsample    [None, 2, 'nearest']
 11                -1  1         0  torch.nn.modules.upsampling.Upsample    [None, 2, 'nearest']
 12           [-1, 6]  1         0  models.common.Concat                    [1]
 12           [-1, 6]  1         0  models.common.Concat                    [1]
 12           [-1, 6]  1         0  models.common.Concat                    [1]
 12           [-1, 6]  1         0  models.common.Concat                    [1]
 10                -1  1    131584  models.common.Conv                      [512, 256, 1, 1]
 10                -1  1    131584  models.common.Conv                      [512, 256, 1, 1]
 11                -1  1         0  torch.nn.modules.upsampling.Upsample    [None, 2, 'nearest']
 11                -1  1         0  torch.nn.modules.upsampling.Upsample    [None, 2, 'nearest']
 12           [-1, 6]  1         0  models.common.Concat                    [1]
 12           [-1, 6]  1         0  models.common.Concat                    [1]
 10                -1  1    131584  models.common.Conv                      [512, 256, 1, 1]
 10                -1  1    131584  models.common.Conv                      [512, 256, 1, 1]
 11                -1  1         0  torch.nn.modules.upsampling.Upsample    [None, 2, 'nearest']
 11                -1  1         0  torch.nn.modules.upsampling.Upsample    [None, 2, 'nearest']
 12           [-1, 6]  1         0  models.common.Concat                    [1]
 12           [-1, 6]  1         0  models.common.Concat                    [1]
 13                -1  1    361984  models.common.C3                        [512, 256, 1, False]
 13                -1  1    361984  models.common.C3                        [512, 256, 1, False]
 13                -1  1    361984  models.common.C3                        [512, 256, 1, False]
 13                -1  1    361984  models.common.C3                        [512, 256, 1, False]
 13                -1  1    361984  models.common.C3                        [512, 256, 1, False]
 13                -1  1    361984  models.common.C3                        [512, 256, 1, False]
 14                -1  1     33024  models.common.Conv                      [256, 128, 1, 1]
 14                -1  1     33024  models.common.Conv                      [256, 128, 1, 1]
 15                -1  1         0  torch.nn.modules.upsampling.Upsample    [None, 2, 'nearest']
 15                -1  1         0  torch.nn.modules.upsampling.Upsample    [None, 2, 'nearest']
 16           [-1, 4]  1         0  models.common.Concat                    [1]
 16           [-1, 4]  1         0  models.common.Concat                    [1]
 14                -1  1     33024  models.common.Conv                      [256, 128, 1, 1]
 14                -1  1     33024  models.common.Conv                      [256, 128, 1, 1]
 13                -1  1    361984  models.common.C3                        [512, 256, 1, False]
 13                -1  1    361984  models.common.C3                        [512, 256, 1, False]
 14                -1  1     33024  models.common.Conv                      [256, 128, 1, 1]
 14                -1  1     33024  models.common.Conv                      [256, 128, 1, 1]
 15                -1  1         0  torch.nn.modules.upsampling.Upsample    [None, 2, 'nearest']
 15                -1  1         0  torch.nn.modules.upsampling.Upsample    [None, 2, 'nearest']
 15                -1  1         0  torch.nn.modules.upsampling.Upsample    [None, 2, 'nearest']
 16           [-1, 4]  1         0  models.common.Concat                    [1]
 15                -1  1         0  torch.nn.modules.upsampling.Upsample    [None, 2, 'nearest']
 16           [-1, 4]  1         0  models.common.Concat                    [1]
 16           [-1, 4]  1         0  models.common.Concat                    [1]
 16           [-1, 4]  1         0  models.common.Concat                    [1]
 14                -1  1     33024  models.common.Conv                      [256, 128, 1, 1]
 14                -1  1     33024  models.common.Conv                      [256, 128, 1, 1]
 15                -1  1         0  torch.nn.modules.upsampling.Upsample    [None, 2, 'nearest']
 15                -1  1         0  torch.nn.modules.upsampling.Upsample    [None, 2, 'nearest']
 16           [-1, 4]  1         0  models.common.Concat                    [1]
 16           [-1, 4]  1         0  models.common.Concat                    [1]
 17                -1  1     90880  models.common.C3                        [256, 128, 1, False]
 17                -1  1     90880  models.common.C3                        [256, 128, 1, False]
 17                -1  1     90880  models.common.C3                        [256, 128, 1, False]
 17                -1  1     90880  models.common.C3                        [256, 128, 1, False]
 17                -1  1     90880  models.common.C3                        [256, 128, 1, False]
 17                -1  1     90880  models.common.C3                        [256, 128, 1, False]
 17                -1  1     90880  models.common.C3                        [256, 128, 1, False]
 17                -1  1     90880  models.common.C3                        [256, 128, 1, False]
 18                -1  1    147712  models.common.Conv                      [128, 128, 3, 2]
 18                -1  1    147712  models.common.Conv                      [128, 128, 3, 2]
 19          [-1, 14]  1         0  models.common.Concat                    [1]
 19          [-1, 14]  1         0  models.common.Concat                    [1]
 18                -1  1    147712  models.common.Conv                      [128, 128, 3, 2]
 18                -1  1    147712  models.common.Conv                      [128, 128, 3, 2]
 19          [-1, 14]  1         0  models.common.Concat                    [1]
 19          [-1, 14]  1         0  models.common.Concat                    [1]
 18                -1  1    147712  models.common.Conv                      [128, 128, 3, 2]
 18                -1  1    147712  models.common.Conv                      [128, 128, 3, 2]
 19          [-1, 14]  1         0  models.common.Concat                    [1]
 19          [-1, 14]  1         0  models.common.Concat                    [1]
 18                -1  1    147712  models.common.Conv                      [128, 128, 3, 2]
 18                -1  1    147712  models.common.Conv                      [128, 128, 3, 2]
 19          [-1, 14]  1         0  models.common.Concat                    [1]
 19          [-1, 14]  1         0  models.common.Concat                    [1]
 20                -1  1    296448  models.common.C3                        [256, 256, 1, False]
 20                -1  1    296448  models.common.C3                        [256, 256, 1, False]
 20                -1  1    296448  models.common.C3                        [256, 256, 1, False]
 20                -1  1    296448  models.common.C3                        [256, 256, 1, False]
 20                -1  1    296448  models.common.C3                        [256, 256, 1, False]
 20                -1  1    296448  models.common.C3                        [256, 256, 1, False]
 20                -1  1    296448  models.common.C3                        [256, 256, 1, False]
 20                -1  1    296448  models.common.C3                        [256, 256, 1, False]
 21                -1  1    590336  models.common.Conv                      [256, 256, 3, 2]
 21                -1  1    590336  models.common.Conv                      [256, 256, 3, 2]
 22          [-1, 10]  1         0  models.common.Concat                    [1]
 22          [-1, 10]  1         0  models.common.Concat                    [1]
 21                -1  1    590336  models.common.Conv                      [256, 256, 3, 2]
 21                -1  1    590336  models.common.Conv                      [256, 256, 3, 2]
 22          [-1, 10]  1         0  models.common.Concat                    [1]
 22          [-1, 10]  1         0  models.common.Concat                    [1]
 21                -1  1    590336  models.common.Conv                      [256, 256, 3, 2]
 21                -1  1    590336  models.common.Conv                      [256, 256, 3, 2]
 22          [-1, 10]  1         0  models.common.Concat                    [1]
 22          [-1, 10]  1         0  models.common.Concat                    [1]
 21                -1  1    590336  models.common.Conv                      [256, 256, 3, 2]
 21                -1  1    590336  models.common.Conv                      [256, 256, 3, 2]
 22          [-1, 10]  1         0  models.common.Concat                    [1]
 22          [-1, 10]  1         0  models.common.Concat                    [1]
 23                -1  1   1182720  models.common.C3                        [512, 512, 1, False]
 23                -1  1   1182720  models.common.C3                        [512, 512, 1, False]
 23                -1  1   1182720  models.common.C3                        [512, 512, 1, False]
 23                -1  1   1182720  models.common.C3                        [512, 512, 1, False]
 23                -1  1   1182720  models.common.C3                        [512, 512, 1, False]
 23                -1  1   1182720  models.common.C3                        [512, 512, 1, False]
 23                -1  1   1182720  models.common.C3                        [512, 512, 1, False]
 23                -1  1   1182720  models.common.C3                        [512, 512, 1, False]
 24      [17, 20, 23]  1    229245  model.yolov5.models.yolo.Detect         [80, [[10, 13, 16, 30, 33, 23], [30, 61, 62, 45, 59, 119], [116, 90, 156, 198, 373, 326]], [128, 256, 512]]
 24      [17, 20, 23]  1    229245  model.yolov5.models.yolo.Detect         [80, [[10, 13, 16, 30, 33, 23], [30, 61, 62, 45, 59, 119], [116, 90, 156, 198, 373, 326]], [128, 256, 512]]
 24      [17, 20, 23]  1    229245  model.yolov5.models.yolo.Detect         [80, [[10, 13, 16, 30, 33, 23], [30, 61, 62, 45, 59, 119], [116, 90, 156, 198, 373, 326]], [128, 256, 512]]
…
Hyperparameters {'lr0': 0.01, 'lrf': 0.2, 'momentum': 0.937, 'weight_decay': 0.0005, 'warmup_epochs': 3.0, 'warmup_momentum': 0.8, 'warmup_bias_lr': 0.1, 'box': 0.05, 'cls': 0.5, 'cls_pw': 1.0, 'obj': 1.0, 'obj_pw': 1.0, 'iou_t': 0.2, 'anchor_t': 4.0, 'fl_gamma': 0.0, 'hsv_h': 0.015, 'hsv_s': 0.7, 'hsv_v': 0.4, 'degrees': 0.0, 'translate': 0.1, 'scale': 0.5, 'shear': 0.0, 'perspective': 0.0, 'flipud': 0.0, 'fliplr': 0.5, 'mosaic': 1.0, 'mixup': 0.0}
[FedML-Client @device-id-0] [Fri, 13 Oct 2023 15:21:32] [INFO] [init_yolo.py:99:init_yolo] add file handler
add file handler
add file handler
  0                -1  1      3520  models.common.Conv                      [3, 32, 6, 2, 2]
  0                -1  1      3520  models.common.Conv                      [3, 32, 6, 2, 2]
  1                -1  1     18560  models.common.Conv                      [32, 64, 3, 2]
  1                -1  1     18560  models.common.Conv                      [32, 64, 3, 2]
  2                -1  1     18816  models.common.C3                        [64, 64, 1]
  2                -1  1     18816  models.common.C3                        [64, 64, 1]
  3                -1  1     73984  models.common.Conv                      [64, 128, 3, 2]
  3                -1  1     73984  models.common.Conv                      [64, 128, 3, 2]
  4                -1  2    115712  models.common.C3                        [128, 128, 2]
  4                -1  2    115712  models.common.C3                        [128, 128, 2]
  5                -1  1    295424  models.common.Conv                      [128, 256, 3, 2]
  5                -1  1    295424  models.common.Conv                      [128, 256, 3, 2]
  6                -1  3    625152  models.common.C3                        [256, 256, 3]
  6                -1  3    625152  models.common.C3                        [256, 256, 3]

                 from  n    params  module                                  arguments

                 from  n    params  module                                  arguments
  0                -1  1      3520  models.common.Conv                      [3, 32, 6, 2, 2]
  0                -1  1      3520  models.common.Conv                      [3, 32, 6, 2, 2]
  1                -1  1     18560  models.common.Conv                      [32, 64, 3, 2]
  1                -1  1     18560  models.common.Conv                      [32, 64, 3, 2]
  2                -1  1     18816  models.common.C3                        [64, 64, 1]
  2                -1  1     18816  models.common.C3                        [64, 64, 1]
  3                -1  1     73984  models.common.Conv                      [64, 128, 3, 2]
  3                -1  1     73984  models.common.Conv                      [64, 128, 3, 2]
  7                -1  1   1180672  models.common.Conv                      [256, 512, 3, 2]
  7                -1  1   1180672  models.common.Conv                      [256, 512, 3, 2]
  4                -1  2    115712  models.common.C3                        [128, 128, 2]
  4                -1  2    115712  models.common.C3                        [128, 128, 2]
  5                -1  1    295424  models.common.Conv                      [128, 256, 3, 2]
  5                -1  1    295424  models.common.Conv                      [128, 256, 3, 2]
  8                -1  1   1182720  models.common.C3                        [512, 512, 1]
  8                -1  1   1182720  models.common.C3                        [512, 512, 1]
  6                -1  3    625152  models.common.C3                        [256, 256, 3]
  6                -1  3    625152  models.common.C3                        [256, 256, 3]
  9                -1  1    656896  models.common.SPPF                      [512, 512, 5]
  9                -1  1    656896  models.common.SPPF                      [512, 512, 5]
 10                -1  1    131584  models.common.Conv                      [512, 256, 1, 1]
 10                -1  1    131584  models.common.Conv                      [512, 256, 1, 1]
 11                -1  1         0  torch.nn.modules.upsampling.Upsample    [None, 2, 'nearest']
 11                -1  1         0  torch.nn.modules.upsampling.Upsample    [None, 2, 'nearest']
 12           [-1, 6]  1         0  models.common.Concat                    [1]
 12           [-1, 6]  1         0  models.common.Concat                    [1]
  7                -1  1   1180672  models.common.Conv                      [256, 512, 3, 2]
  7                -1  1   1180672  models.common.Conv                      [256, 512, 3, 2]
 13                -1  1    361984  models.common.C3                        [512, 256, 1, False]
 13                -1  1    361984  models.common.C3                        [512, 256, 1, False]
[FedML-Client @device-id-0] [Fri, 13 Oct 2023 15:21:32] [INFO] [__init__.py:101:init] args.rank = 1, args.process_id = 1, args.worker_num = 4
args.rank = 1, args.process_id = 1, args.worker_num = 4
args.rank = 1, args.process_id = 1, args.worker_num = 4
[FedML-Client @device-id-0] [Fri, 13 Oct 2023 15:21:32] [INFO] [__init__.py:154:update_client_specific_args] data_silo_config is not defined in fedml_config.yaml
…
args = <fedml.arguments.Arguments object at 0x000002231529C790>, using_gpu = False, device_id = None, device_type = cpu
args = <fedml.arguments.Arguments object at 0x000002231529C790>, using_gpu = False, device_id = None, device_type = cpu
[FedML-Client @device-id-0] [Fri, 13 Oct 2023 15:21:32] [INFO] [gpu_mapping_mpi.py:16:mapping_processes_to_gpu_device_from_yaml_file_mpi] cpu
cpu
cpu
[FedML-Client @device-id-0] [Fri, 13 Oct 2023 15:21:32] [INFO] [device.py:68:get_device] device = cpu
device = cpu
device = cpu
[FedML-Client @device-id-0] [Fri, 13 Oct 2023 15:21:32] [INFO] [init_yolo.py:60:init_yolo] add checkpoint interval
add checkpoint interval
add checkpoint interval
 14                -1  1     33024  models.common.Conv                      [256, 128, 1, 1]
 14                -1  1     33024  models.common.Conv                      [256, 128, 1, 1]
 15                -1  1         0  torch.nn.modules.upsampling.Upsample    [None, 2, 'nearest']
 15                -1  1         0  torch.nn.modules.upsampling.Upsample    [None, 2, 'nearest']
 16           [-1, 4]  1         0  models.common.Concat                    [1]
 16           [-1, 4]  1         0  models.common.Concat                    [1]
  8                -1  1   1182720  models.common.C3                        [512, 512, 1]
  8                -1  1   1182720  models.common.C3                        [512, 512, 1]
 17                -1  1     90880  models.common.C3                        [256, 128, 1, False]
 17                -1  1     90880  models.common.C3                        [256, 128, 1, False]
[FedML-Client @device-id-0] [Fri, 13 Oct 2023 15:21:32] [INFO] [init_yolo.py:82:init_yolo] Hyperparameters {'lr0': 0.01, 'lrf': 0.2, 'momentum': 0.937, 'weight_decay': 0.0005, 'warmup_epochs': 3.0, 'warmup_momentum': 0.8, 'warmup_bias_lr': 0.1, 'box': 0.05, 'cls': 0.5, 'cls_pw': 1.0, 'obj': 1.0, 'obj_pw': 1.0, 'iou_t': 0.2, 'anchor_t': 4.0, 'fl_gamma': 0.0, 'hsv_h': 0.015, 'hsv_s': 0.7, 'hsv_v': 0.4, 'degrees': 0.0, 'translate': 0.1, 'scale': 0.5, 'shear': 0.0, 'perspective': 0.0, 'flipud': 0.0, 'fliplr': 0.5, 'mosaic': 1.0, 'mixup': 0.0}
…
Hyperparameters {'lr0': 0.01, 'lrf': 0.2, 'momentum': 0.937, 'weight_decay': 0.0005, 'warmup_epochs': 3.0, 'warmup_momentum': 0.8, 'warmup_bias_lr': 0.1, 'box': 0.05, 'cls': 0.5, 'cls_pw': 1.0, 'obj': 1.0, 'obj_pw': 1.0, 'iou_t': 0.2, 'anchor_t': 4.0, 'fl_gamma': 0.0, 'hsv_h': 0.015, 'hsv_s': 0.7, 'hsv_v': 0.4, 'degrees': 0.0, 'translate': 0.1, 'scale': 0.5, 'shear': 0.0, 'perspective': 0.0, 'flipud': 0.0, 'fliplr': 0.5, 'mosaic': 1.0, 'mixup': 0.0}
[FedML-Client @device-id-0] [Fri, 13 Oct 2023 15:21:32] [INFO] [init_yolo.py:99:init_yolo] add file handler
add file handler
add file handler
 18                -1  1    147712  models.common.Conv                      [128, 128, 3, 2]
 18                -1  1    147712  models.common.Conv                      [128, 128, 3, 2]
 19          [-1, 14]  1         0  models.common.Concat                    [1]
 19          [-1, 14]  1         0  models.common.Concat                    [1]
  9                -1  1    656896  models.common.SPPF                      [512, 512, 5]
  9                -1  1    656896  models.common.SPPF                      [512, 512, 5]
 20                -1  1    296448  models.common.C3                        [256, 256, 1, False]
 20                -1  1    296448  models.common.C3                        [256, 256, 1, False]
 10                -1  1    131584  models.common.Conv                      [512, 256, 1, 1]
 10                -1  1    131584  models.common.Conv                      [512, 256, 1, 1]
 11                -1  1         0  torch.nn.modules.upsampling.Upsample    [None, 2, 'nearest']
 11                -1  1         0  torch.nn.modules.upsampling.Upsample    [None, 2, 'nearest']
 12           [-1, 6]  1         0  models.common.Concat                    [1]
 12           [-1, 6]  1         0  models.common.Concat                    [1]
 21                -1  1    590336  models.common.Conv                      [256, 256, 3, 2]
 21                -1  1    590336  models.common.Conv                      [256, 256, 3, 2]
 13                -1  1    361984  models.common.C3                        [512, 256, 1, False]
 13                -1  1    361984  models.common.C3                        [512, 256, 1, False]
 22          [-1, 10]  1         0  models.common.Concat                    [1]
 22          [-1, 10]  1         0  models.common.Concat                    [1]
 14                -1  1     33024  models.common.Conv                      [256, 128, 1, 1]
 14                -1  1     33024  models.common.Conv                      [256, 128, 1, 1]
 15                -1  1         0  torch.nn.modules.upsampling.Upsample    [None, 2, 'nearest']
 15                -1  1         0  torch.nn.modules.upsampling.Upsample    [None, 2, 'nearest']
 16           [-1, 4]  1         0  models.common.Concat                    [1]
 16           [-1, 4]  1         0  models.common.Concat                    [1]
 17                -1  1     90880  models.common.C3                        [256, 128, 1, False]
 17                -1  1     90880  models.common.C3                        [256, 128, 1, False]
 18                -1  1    147712  models.common.Conv                      [128, 128, 3, 2]
 18                -1  1    147712  models.common.Conv                      [128, 128, 3, 2]
 19          [-1, 14]  1         0  models.common.Concat                    [1]
 19          [-1, 14]  1         0  models.common.Concat                    [1]
 23                -1  1   1182720  models.common.C3                        [512, 512, 1, False]
 23                -1  1   1182720  models.common.C3                        [512, 512, 1, False]
 20                -1  1    296448  models.common.C3                        [256, 256, 1, False]
 20                -1  1    296448  models.common.C3                        [256, 256, 1, False]

                 from  n    params  module                                  arguments

                 from  n    params  module                                  arguments
  0                -1  1      3520  models.common.Conv                      [3, 32, 6, 2, 2]
  0                -1  1      3520  models.common.Conv                      [3, 32, 6, 2, 2]
 24      [17, 20, 23]  1    229245  model.yolov5.models.yolo.Detect         [80, [[10, 13, 16, 30, 33, 23], [30, 61, 62, 45, 59, 119], [116, 90, 156, 198, 373, 326]], [128, 256, 512]]
  1                -1  1     18560  models.common.Conv                      [32, 64, 3, 2]
 24      [17, 20, 23]  1    229245  model.yolov5.models.yolo.Detect         [80, [[10, 13, 16, 30, 33, 23], [30, 61, 62, 45, 59, 119], [116, 90, 156, 198, 373, 326]], [128, 256, 512]]
  1                -1  1     18560  models.common.Conv                      [32, 64, 3, 2]
 21                -1  1    590336  models.common.Conv                      [256, 256, 3, 2]
 21                -1  1    590336  models.common.Conv                      [256, 256, 3, 2]
 22          [-1, 10]  1         0  models.common.Concat                    [1]
 22          [-1, 10]  1         0  models.common.Concat                    [1]
  2                -1  1     18816  models.common.C3                        [64, 64, 1]
  2                -1  1     18816  models.common.C3                        [64, 64, 1]
  3                -1  1     73984  models.common.Conv                      [64, 128, 3, 2]
  3                -1  1     73984  models.common.Conv                      [64, 128, 3, 2]
  4                -1  2    115712  models.common.C3                        [128, 128, 2]
  4                -1  2    115712  models.common.C3                        [128, 128, 2]
  5                -1  1    295424  models.common.Conv                      [128, 256, 3, 2]
  5                -1  1    295424  models.common.Conv                      [128, 256, 3, 2]
 23                -1  1   1182720  models.common.C3                        [512, 512, 1, False]
 23                -1  1   1182720  models.common.C3                        [512, 512, 1, False]
 24      [17, 20, 23]  1    229245  model.yolov5.models.yolo.Detect         [80, [[10, 13, 16, 30, 33, 23], [30, 61, 62, 45, 59, 119], [116, 90, 156, 198, 373, 326]], [128, 256, 512]]
 24      [17, 20, 23]  1    229245  model.yolov5.models.yolo.Detect         [80, [[10, 13, 16, 30, 33, 23], [30, 61, 62, 45, 59, 119], [116, 90, 156, 198, 373, 326]], [128, 256, 512]]
  6                -1  3    625152  models.common.C3                        [256, 256, 3]
  6                -1  3    625152  models.common.C3                        [256, 256, 3]
  7                -1  1   1180672  models.common.Conv                      [256, 512, 3, 2]
  7                -1  1   1180672  models.common.Conv                      [256, 512, 3, 2]
  8                -1  1   1182720  models.common.C3                        [512, 512, 1]
  8                -1  1   1182720  models.common.C3                        [512, 512, 1]
  9                -1  1    656896  models.common.SPPF                      [512, 512, 5]
  9                -1  1    656896  models.common.SPPF                      [512, 512, 5]
 10                -1  1    131584  models.common.Conv                      [512, 256, 1, 1]
 10                -1  1    131584  models.common.Conv                      [512, 256, 1, 1]
 11                -1  1         0  torch.nn.modules.upsampling.Upsample    [None, 2, 'nearest']
 11                -1  1         0  torch.nn.modules.upsampling.Upsample    [None, 2, 'nearest']
 12           [-1, 6]  1         0  models.common.Concat                    [1]
 12           [-1, 6]  1         0  models.common.Concat                    [1]
[FedML-Client @device-id-0] [Fri, 13 Oct 2023 15:21:32] [INFO] [__init__.py:101:init] args.rank = 2, args.process_id = 2, args.worker_num = 4
args.rank = 2, args.process_id = 2, args.worker_num = 4
args.rank = 2, args.process_id = 2, args.worker_num = 4
[FedML-Client @device-id-0] [Fri, 13 Oct 2023 15:21:32] [INFO] [__init__.py:154:update_client_specific_args] data_silo_config is not defined in fedml_config.yaml
…
[FedML-Client @device-id-0] [Fri, 13 Oct 2023 15:21:32] [INFO] [ml_engine_adapter.py:147:get_torch_device] args = <fedml.arguments.Arguments object at 0x0000021FACEC0B10>, using_gpu = False, device_id = None, device_type = cpu
args = <fedml.arguments.Arguments object at 0x0000021FACEC0B10>, using_gpu = False, device_id = None, device_type = cpu
args = <fedml.arguments.Arguments object at 0x0000021FACEC0B10>, using_gpu = False, device_id = None, device_type = cpu
[FedML-Client @device-id-0] [Fri, 13 Oct 2023 15:21:32] [INFO] [gpu_mapping_mpi.py:16:mapping_processes_to_gpu_device_from_yaml_file_mpi] cpu
cpu
cpu
[FedML-Client @device-id-0] [Fri, 13 Oct 2023 15:21:32] [INFO] [device.py:68:get_device] device = cpu
device = cpu
device = cpu
 14                -1  1     33024  models.common.Conv                      [256, 128, 1, 1]
 14                -1  1     33024  models.common.Conv                      [256, 128, 1, 1]
[FedML-Client @device-id-0] [Fri, 13 Oct 2023 15:21:32] [INFO] [init_yolo.py:60:init_yolo] add checkpoint interval
add checkpoint interval
add checkpoint interval
 15                -1  1         0  torch.nn.modules.upsampling.Upsample    [None, 2, 'nearest']
 15                -1  1         0  torch.nn.modules.upsampling.Upsample    [None, 2, 'nearest']
 16           [-1, 4]  1         0  models.common.Concat                    [1]
 16           [-1, 4]  1         0  models.common.Concat                    [1]
 17                -1  1     90880  models.common.C3                        [256, 128, 1, False]
 17                -1  1     90880  models.common.C3                        [256, 128, 1, False]
[FedML-Client @device-id-0] [Fri, 13 Oct 2023 15:21:32] [INFO] [init_yolo.py:82:init_yolo] Hyperparameters {'lr0': 0.01, 'lrf': 0.2, 'momentum': 0.937, 'weight_decay': 0.0005, 'warmup_epochs': 3.0, 'warmup_momentum': 0.8, 'warmup_bias_lr': 0.1, 'box': 0.05, 'cls': 0.5, 'cls_pw': 1.0, 'obj': 1.0, 'obj_pw': 1.0, 'iou_t': 0.2, 'anchor_t': 4.0, 'fl_gamma': 0.0, 'hsv_h': 0.015, 'hsv_s': 0.7, 'hsv_v': 0.4, 'degrees': 0.0, 'translate': 0.1, 'scale': 0.5, 'shear': 0.0, 'perspective': 0.0, 'flipud': 0.0, 'fliplr': 0.5, 'mosaic': 1.0, 'mixup': 0.0}
…
Hyperparameters {'lr0': 0.01, 'lrf': 0.2, 'momentum': 0.937, 'weight_decay': 0.0005, 'warmup_epochs': 3.0, 'warmup_momentum': 0.8, 'warmup_bias_lr': 0.1, 'box': 0.05, 'cls': 0.5, 'cls_pw': 1.0, 'obj': 1.0, 'obj_pw': 1.0, 'iou_t': 0.2, 'anchor_t': 4.0, 'fl_gamma': 0.0, 'hsv_h': 0.015, 'hsv_s': 0.7, 'hsv_v': 0.4, 'degrees': 0.0, 'translate': 0.1, 'scale': 0.5, 'shear': 0.0, 'perspective': 0.0, 'flipud': 0.0, 'fliplr': 0.5, 'mosaic': 1.0, 'mixup': 0.0}
[FedML-Client @device-id-0] [Fri, 13 Oct 2023 15:21:32] [INFO] [init_yolo.py:99:init_yolo] add file handler
add file handler
add file handler
 18                -1  1    147712  models.common.Conv                      [128, 128, 3, 2]
 18                -1  1    147712  models.common.Conv                      [128, 128, 3, 2]
 19          [-1, 14]  1         0  models.common.Concat                    [1]
 19          [-1, 14]  1         0  models.common.Concat                    [1]
 20                -1  1    296448  models.common.C3                        [256, 256, 1, False]
 20                -1  1    296448  models.common.C3                        [256, 256, 1, False]
 21                -1  1    590336  models.common.Conv                      [256, 256, 3, 2]
 21                -1  1    590336  models.common.Conv                      [256, 256, 3, 2]
 22          [-1, 10]  1         0  models.common.Concat                    [1]
 22          [-1, 10]  1         0  models.common.Concat                    [1]
 23                -1  1   1182720  models.common.C3                        [512, 512, 1, False]
 23                -1  1   1182720  models.common.C3                        [512, 512, 1, False]

                 from  n    params  module                                  arguments

                 from  n    params  module                                  arguments
 24      [17, 20, 23]  1    229245  model.yolov5.models.yolo.Detect         [80, [[10, 13, 16, 30, 33, 23], [30, 61, 62, 45, 59, 119], [116, 90, 156, 198, 373, 326]], [128, 256, 512]]
  0                -1  1      3520  models.common.Conv                      [3, 32, 6, 2, 2]
 24      [17, 20, 23]  1    229245  model.yolov5.models.yolo.Detect         [80, [[10, 13, 16, 30, 33, 23], [30, 61, 62, 45, 59, 119], [116, 90, 156, 198, 373, 326]], [128, 256, 512]]
  0                -1  1      3520  models.common.Conv                      [3, 32, 6, 2, 2]
  1                -1  1     18560  models.common.Conv                      [32, 64, 3, 2]
  1                -1  1     18560  models.common.Conv                      [32, 64, 3, 2]
  2                -1  1     18816  models.common.C3                        [64, 64, 1]
  2                -1  1     18816  models.common.C3                        [64, 64, 1]
  3                -1  1     73984  models.common.Conv                      [64, 128, 3, 2]
  3                -1  1     73984  models.common.Conv                      [64, 128, 3, 2]
  4                -1  2    115712  models.common.C3                        [128, 128, 2]
  4                -1  2    115712  models.common.C3                        [128, 128, 2]
  5                -1  1    295424  models.common.Conv                      [128, 256, 3, 2]
  5                -1  1    295424  models.common.Conv                      [128, 256, 3, 2]
  6                -1  3    625152  models.common.C3                        [256, 256, 3]
  6                -1  3    625152  models.common.C3                        [256, 256, 3]
  7                -1  1   1180672  models.common.Conv                      [256, 512, 3, 2]
  7                -1  1   1180672  models.common.Conv                      [256, 512, 3, 2]
  8                -1  1   1182720  models.common.C3                        [512, 512, 1]
  8                -1  1   1182720  models.common.C3                        [512, 512, 1]
  9                -1  1    656896  models.common.SPPF                      [512, 512, 5]
  9                -1  1    656896  models.common.SPPF                      [512, 512, 5]
 10                -1  1    131584  models.common.Conv                      [512, 256, 1, 1]
 10                -1  1    131584  models.common.Conv                      [512, 256, 1, 1]
 11                -1  1         0  torch.nn.modules.upsampling.Upsample    [None, 2, 'nearest']
 11                -1  1         0  torch.nn.modules.upsampling.Upsample    [None, 2, 'nearest']
 12           [-1, 6]  1         0  models.common.Concat                    [1]
 12           [-1, 6]  1         0  models.common.Concat                    [1]
 13                -1  1    361984  models.common.C3                        [512, 256, 1, False]
 13                -1  1    361984  models.common.C3                        [512, 256, 1, False]
 14                -1  1     33024  models.common.Conv                      [256, 128, 1, 1]
 14                -1  1     33024  models.common.Conv                      [256, 128, 1, 1]
 15                -1  1         0  torch.nn.modules.upsampling.Upsample    [None, 2, 'nearest']
 15                -1  1         0  torch.nn.modules.upsampling.Upsample    [None, 2, 'nearest']
 16           [-1, 4]  1         0  models.common.Concat                    [1]
 16           [-1, 4]  1         0  models.common.Concat                    [1]
 17                -1  1     90880  models.common.C3                        [256, 128, 1, False]
 17                -1  1     90880  models.common.C3                        [256, 128, 1, False]
 18                -1  1    147712  models.common.Conv                      [128, 128, 3, 2]
 18                -1  1    147712  models.common.Conv                      [128, 128, 3, 2]
 19          [-1, 14]  1         0  models.common.Concat                    [1]
 19          [-1, 14]  1         0  models.common.Concat                    [1]
 20                -1  1    296448  models.common.C3                        [256, 256, 1, False]
 20                -1  1    296448  models.common.C3                        [256, 256, 1, False]
 21                -1  1    590336  models.common.Conv                      [256, 256, 3, 2]
 21                -1  1    590336  models.common.Conv                      [256, 256, 3, 2]
 22          [-1, 10]  1         0  models.common.Concat                    [1]
 22          [-1, 10]  1         0  models.common.Concat                    [1]
 23                -1  1   1182720  models.common.C3                        [512, 512, 1, False]
 23                -1  1   1182720  models.common.C3                        [512, 512, 1, False]
 24      [17, 20, 23]  1    229245  model.yolov5.models.yolo.Detect         [80, [[10, 13, 16, 30, 33, 23], [30, 61, 62, 45, 59, 119], [116, 90, 156, 198, 373, 326]], [128, 256, 512]]
 24      [17, 20, 23]  1    229245  model.yolov5.models.yolo.Detect         [80, [[10, 13, 16, 30, 33, 23], [30, 61, 62, 45, 59, 119], [116, 90, 156, 198, 373, 326]], [128, 256, 512]]
YOLOv5s summary: 270 layers, 7235389 parameters, 7235389 gradients, 16.6 GFLOPs
…
